maize_yield_predictor_nn02.pth (torch, 198917 bytes, 19 tensors)

network.0.weight f4 [256, 17]
000000 79 af ff bd dc bf 51 3d 97 1e b0 bd 6a b6 c3 bd
       -0.12484641 0.051208362 -0.085995845 -0.09556277
000010 00 3c 68 bd 32 c7 2e 3d 5a da 16 3e 57 11 d2 3d
       -0.056697845 0.042670436 0.14731732 0.102572136
000020 a9 2c 05 be 26 d1 91 3d d6 c6 4b 3d 8b 55 09 bd
       -0.13005318 0.0711997 0.04975017 -0.033528846
000030 f1 7d 3a 3c e9 50 ee 3e 7f a4 7b be dc bc 72 bb
       0.011382566 0.46546105 -0.24574469 -0.0037038838
000040 f1 f9 05 3e 31 c1 fb 3d 12 e1 52 3e 42 42 02 be
       0.13083626 0.12292708 0.2059367 -0.12720588
000050 1e 67 c3 3d 2f 68 01 be 82 34 cf bd 11 fd bb bd
       0.095411524 -0.12637399 -0.10117437 -0.09179128
000060 3d f3 61 3e 69 fd 34 3e 3d c8 05 bd 94 90 f5 3d
       0.22065444 0.17674793 -0.032661665 0.11990467
000070 75 cf ff bc e6 fe 77 3d 30 b8 bf 3e d3 2a 56 bd
       -0.031226853 0.060545824 0.3744521 -0.052286934
000080 76 48 54 3e 8c 8f ac bd 3a 09 a8 bd 31 f3 68 3c
       0.20730767 -0.08425817 -0.08204885 0.014218138
000090 d3 95 60 bd 6f b8 c2 3b 15 da 3c bd e3 fa b4 bd
       -0.054830384 0.0059423964 -0.046106417 -0.08836915
0000a0 a1 bd 90 3d 3b fc f5 bd 1f 6b ff 3d 02 13 4e bd
       0.07067419 -0.12011 0.124716036 -0.050311096
0000b0 66 24 07 bd ac 52 8e 3c d3 be 8b 3d 7b ff ab 3e
       -0.032993697 0.017373405 0.06823506 0.33593354
0000c0 5f 35 7a 3e db 1c dc 3e f0 6b 40 be 0b d2 d9 bd
       0.24434422 0.42990765 -0.18791175 -0.10635766
0000d0 d3 fc 81 39 f9 19 29 bc 55 38 d3 3d 8d d4 a3 bd
       0.00024793166 -0.010321134 0.10313479 -0.07999525
0000e0 f8 55 42 3b ef ee 76 3d 37 33 d5 bd 91 9a 57 3e
       0.0029653292 0.06028646 -0.10410159 0.21055056
0000f0 ee 2a 20 bd 84 bd 2e 3d d1 8e 34 bd 3c aa 86 3d
       -0.03910344 0.042661205 -0.044081513 0.065754384
000100 d7 50 d7 3e 4d f9 72 be 17 85 dc 3d fa b7 69 3e
       0.42053863 -0.23727913 0.107675724 0.22824088
000110 31 c1 ab bd 75 fa 3c 3e cd 3e 0c 3e 09 2f 58 3e
       -0.08386458 0.18454917 0.13695832 0.21111692
000120 4c 03 5a 3d 6c 6f b9 bd 75 37 ca bd c8 00 21 3e
       0.0532258 -0.09054455 -0.09873859 0.15722954
000130 26 48 62 3d 97 ba 83 bc 54 71 e7 3d e7 7f e4 bd
       0.055244587 -0.016080184 0.113009125 -0.11157208
000140 d8 74 57 be f2 56 ac bb ee eb 19 bd 28 1f 6f be
       -0.21040666 -0.005259388 -0.037578516 -0.23351729
000150 cd 56 b8 3d 11 01 3b 3d 37 47 55 3d 65 2f d6 3c
       0.09000931 0.045655314 0.05206987 0.026145646
000160 39 e7 d4 3d d2 74 44 3e 8f 7d c5 3b 71 b7 9d bd
       0.10395665 0.19185188 0.0060269306 -0.07701004
000170 4c cc 19 3e c3 2e 8f bd 7b d2 01 be c1 6b 7c be
       0.1501934 -0.06991341 -0.12677948 -0.2465048
000180 5e cd 8e bd 2a 86 17 3e d2 6b 16 3e 56 5e a7 bd
       -0.069727644 0.14797273 0.14689568 -0.0817229
000190 cb e8 5f bd 73 25 20 be 55 ef 0c 3d dd 27 e6 3d
       -0.054665368 -0.15639286 0.034407932 0.11238072
0001a0 02 31 f9 3d 78 d9 f6 3c 4a 7a b1 3c 79 f5 ce 3d
       0.121675506 0.030132994 0.021664757 0.10105414
0001b0 ef ca 26 be 50 36 47 bc b9 d6 c1 3b 39 8f 70 3e
       -0.1628835 -0.012158945 0.0059154895 0.23492135
0001c0 0a 2d 03 3e cf ff ac bd bb 0a 9b 3d aa 0f 5b be
       0.1281015 -0.08447229 0.07570406 -0.21392694
0001d0 73 3d 37 3e b1 d0 96 be 52 52 c2 bd bf ce 18 be
       0.17894535 -0.29456094 -0.094883576 -0.14922617
0001e0 d1 1e 24 3e 89 72 bb bd 5a 44 81 be 20 fc 49 be
       0.1602738 -0.09152705 -0.2524746 -0.19725084
0001f0 59 9f f9 bd 04 22 de bd f9 48 ee 3b 9c e5 10 be
       -0.12188596 -0.10846332 0.0072718826 -0.14150089
000200 aa 9a ea bd 4d c5 b9 3d ef bb 47 bd 84 6e bc bd
       -0.11455281 0.09070835 -0.04876321 -0.09200767
000210 44 fd d9 be 82 82 0b be d4 a7 89 bd 69 fc 85 3d
       -0.4257604 -0.13624004 -0.06721464 0.06542284
000220 a1 60 ac bb bf 04 02 3d 65 c6 1e bd f0 ec 41 bd
       -0.0052605425 0.031742807 -0.038763423 -0.0473451
000230 53 22 33 3d b0 9b 00 3d 89 34 be bd c4 69 51 bd
       0.043733906 0.031398475 -0.09287364 -0.051126257
000240 66 3e 0f 3c 61 82 c8 3d bb 55 a5 bd 02 b9 1e bd
       0.008742904 0.09790493 -0.080729924 -0.038750656
000250 2d eb d4 3c 1a 71 cc 3e 4e 19 54 3d 24 6c 3b 3e
       0.025991047 0.3993004 0.051781945 0.18302971
000260 35 b2 12 be 5a ff da 3d b6 37 02 be f2 95 ea 3d
       -0.14325793 0.10693236 -0.12716565 0.11454381
000270 98 ec 91 bc b3 ba 57 3d cf be 31 bd 55 e0 21 3d
       -0.017813012 0.052668285 -0.04339486 0.03952058
000280 38 cc 63 bd 1c 0b f0 3b 65 07 89 bd 24 2b 86 bd
       -0.05561468 0.007325543 -0.066908635 -0.06551197
000290 f3 7d 61 be ad 73 81 bd fe e8 eb 3d ed b6 50 3e
       -0.22020702 -0.063208915 0.11519049 0.2038228
0002a0 af 1b da 3e 88 77 83 be fe 26 f4 bc a2 1c aa 3d
       0.42599246 -0.25677133 -0.02980375 0.083062425
0002b0 d3 df 66 3b 13 19 0f be ca c8 19 be 17 8b d7 bd
       0.0035228624 -0.13974409 -0.15018001 -0.10524576
0002c0 ec 01 20 3e fc 8f 60 bc 78 f0 04 be 0d 33 59 bd
       0.15625733 -0.013706204 -0.12982357 -0.0530272
0002d0 aa f9 c6 3c 3c 37 72 3c 7f 55 b6 bd 0c d7 1b 3f
       0.024288971 0.014783677 -0.08903026 0.6087501
0002e0 d3 6f 94 3c 8e 99 d8 bd 4f 43 01 3e 3a 2f a8 bd
       0.018119728 -0.10576163 0.12623332 -0.08212133
0002f0 97 24 2e 3e 7f 93 4a 3d 2f c6 eb bc 05 d2 c5 bd
       0.17006145 0.04945707 -0.028781025 -0.09659199
000300 71 57 df 3d e8 4d 3f be 9d 7d d1 3d 25 9a f2 3d
       0.1090535 -0.18682063 0.10229037 0.11845807
000310 76 0a 15 3e 85 14 e9 3d 0d 74 e4 bc 8f 64 38 bd
       0.14554772 0.11380867 -0.027887369 -0.045017775
000320 cc 4c 5f be 3e b3 99 3e 0f 1e 9f 3e d6 4d 4b be
       -0.2180664 0.30019563 0.3107762 -0.19853911
000330 5f 43 ad 3d 43 b2 82 3d 86 3b 07 3e 39 a6 29 3e
       0.08460116 0.06381657 0.132063 0.16567315
000340 fc 89 a6 bd 7e 81 1f 3d 51 82 51 bd ef 34 1a be
       -0.08131787 0.038941853 -0.05114967 -0.15059255
000350 10 65 be bd 92 f7 62 bd fb 24 d7 bd 15 7a 97 3c
       -0.0929662 -0.055411883 -0.105051 0.01849083
000360 a7 47 3b 3e 2a 7b c9 be 2e 78 25 3e 45 82 72 be
       0.18289052 -0.3935178 0.16159126 -0.23682506
000370 f1 e5 8d 3a 5f 84 09 3e 40 0f e2 bd f4 19 19 be
       0.0010825974 0.13429402 -0.11038065 -0.14951307
000380 fb 76 a5 3d 88 37 0c be 50 db 2f be d0 4b 2a 3e
       0.08079334 -0.13693058 -0.17173505 0.16630483
000390 cf ff 02 bd d0 27 9c 3c c1 df 5b be 6e 50 3d bc
       -0.03198224 0.019061953 -0.21472074 -0.01155482
0003a0 93 4b 10 bd c2 8a f7 3d da 14 78 be 8c 15 40 3e
       -0.035228323 0.12087013 -0.24226704 0.1875822
0003b0 63 d8 9d be 5c 4f 20 bd 97 86 c3 bd 06 56 69 bd
       -0.30829152 -0.039138183 -0.09547155 -0.056966804
0003c0 ce 27 47 be 1f 04 13 be 8b a5 26 be 84 ca 78 3e
       -0.19448778 -0.14357041 -0.16274087 0.24296004
0003d0 51 c2 eb 3c 37 60 6b bc de b1 da 3d 42 fc 72 3d
       0.02877918 -0.014366201 0.10678457 0.059322603
0003e0 4e 12 4d 3e 07 c5 38 3e ab 3c 0c be 01 9c 35 be
       0.20026514 0.1804391 -0.13695018 -0.17735292
0003f0 28 10 05 3e d8 3e 95 3d f9 cd 65 3e 00 71 a3 3c
       0.12994444 0.07287377 0.22441854 0.019951344

network.0.bias f4 [256]
000000 5c 33 3a be e0 2f 59 be 3f e5 ed 3d 28 ec ab 3d
       -0.18183655 -0.21209669 0.11615991 0.083946526
000010 63 f1 84 3d 1e 3d 15 3e 9d 85 09 bd 34 2e 62 3e
       0.06491353 0.14574096 -0.03357469 0.22087938
000020 67 8e 2d be e4 9a 68 3e bb d8 9f 3a 5c 66 24 be
       -0.16948853 0.22715336 0.0012195328 -0.16054672
000030 c9 fc 87 be 92 06 91 3e be 9d 6d be 60 2f 08 be
       -0.26560047 0.28325325 -0.23204705 -0.13299322
000040 03 09 ee bd 11 72 23 be 32 3b 1c be 41 e6 23 be
       -0.116228126 -0.15961482 -0.15256956 -0.16005804
000050 ee a4 4b 3e 25 6a 97 3e 30 19 81 be 55 2c 12 3e
       0.19887134 0.2957317 -0.2521453 0.14274724
000060 21 d6 0d 3e a5 2d 15 3e 62 2c d0 bd 8a b2 31 be
       0.13851215 0.14568193 -0.10164715 -0.17353263
000070 63 15 a6 bd 6c 51 84 3e b0 bb 37 3e 3e 3e 5c be
       -0.08109548 0.2584337 0.17942691 -0.21508119
000080 35 57 73 be b3 68 38 3d a6 11 ae bd 8b bc 17 be
       -0.23763736 0.045021724 -0.0849946 -0.14818017
000090 a5 04 1e 3e 73 71 85 3e a2 ee 5d be fe a3 cb bd
       0.15431459 0.26063117 -0.21673062 -0.099433884
0000a0 17 3d 4c 3e 6b c5 b2 3d 0b c6 32 bd 7c f8 32 3e
       0.19945179 0.08729061 -0.0436459 0.17477602
0000b0 53 34 38 be d5 ad 16 3e 34 0c 5c 3e 52 7d da 3d
       -0.1798871 0.14714749 0.2148903 0.10668434
0000c0 60 b9 8c 3e 20 38 1f 3e 1a 23 4a 3e ba 9f de bd
       0.2748518 0.15548754 0.19739953 -0.10870309
0000d0 9a c1 73 3e 7d 7d 3c be be 78 7f 3e d2 0c d4 3c
       0.23804322 -0.18407245 0.24948403 0.02588502
0000e0 aa 42 d5 3d 57 f8 62 3e 43 cb 99 be ef 5e 19 bd
       0.10413106 0.22165047 -0.3003789 -0.03744405
0000f0 db 4e 1f be 12 c2 38 3e 2c 0a 25 be 11 ee 68 be
       -0.15557425 0.18042782 -0.16117162 -0.22747065
000100 1f cf aa 3d b2 54 bc 3d 9a bc c2 3d 68 77 66 be
       0.083402865 0.09195842 0.09508629 -0.22506487
000110 64 63 21 be 80 51 a1 bd 1b 64 05 bd 55 51 04 3d
       -0.15760571 -0.07876873 -0.03256617 0.032304127
000120 1d b2 7b bd fa e3 02 bd b1 35 ba bd 6b 16 41 3e
       -0.06144916 -0.031955697 -0.09092272 0.18856208
000130 b2 e5 26 3e 03 bf 45 bc a6 42 c3 bc 16 9e 56 bd
       0.1629856 -0.0120694665 -0.023835491 -0.052396856
000140 bc f5 26 3d c7 d0 a5 3c c3 fb 5c be a1 be 12 bd
       0.040761694 0.020241154 -0.21580414 -0.03582633
000150 db 3a 29 3e 29 c5 96 be 8a ca 33 be 71 05 ab bd
       0.16526358 -0.29447296 -0.17557731 -0.08350647
000160 01 1f 16 be 90 49 88 bd cb 3c 29 3e 35 d1 63 bc
       -0.14660265 -0.06654656 0.16527097 -0.013904859
000170 73 b1 97 be d8 9d 44 be 68 75 de bd f1 08 ee 3d
       -0.2962757 -0.19200838 -0.10862237 0.11622799
000180 b2 24 ab bd a6 cc 91 bd 36 27 eb bd 09 6b 09 3e
       -0.083566085 -0.07119112 -0.11482088 0.13419737
000190 47 d8 ab bd 30 f3 9c be f0 31 63 bc d3 53 09 be
       -0.08390861 -0.30654287 -0.0138668865 -0.13410883
0001a0 0b 89 de 3d 98 ab 21 3b 0a 21 05 3e 19 d7 18 3e
       0.108659826 0.0024668928 0.13000885 0.14925803
0001b0 3d 98 71 be b4 95 06 3e 55 e8 6f be 28 41 14 be
       -0.2359323 0.13143045 -0.23428471 -0.1447798
0001c0 54 a8 3a 3e c4 68 2e be 5a c9 44 be f8 42 aa 3d
       0.18228275 -0.17032152 -0.19217435 0.083135545
0001d0 81 fd 4b bc 98 f7 e5 bd f7 b7 2c be 03 51 6c 3d
       -0.012450577 -0.112288654 -0.16867052 0.057694446
0001e0 e8 3d 44 3e 52 b3 3c be b1 5d 31 bd 3b e8 da bc
       0.1916424 -0.1842778 -0.04330224 -0.026722064
0001f0 be a0 56 3d 92 ef 29 bd 26 b3 1b 3e c4 6f 01 3c
       0.05239939 -0.041488238 0.15205058 0.007900182
000200 ae 88 0b be 99 30 b4 bc c9 ce 4a 3e ba fa ab bd
       -0.13626358 -0.02199583 0.19805445 -0.08397432
000210 4d 09 84 3e 89 72 ff 3d c4 99 2b 3e 11 26 b6 3d
       0.25788346 0.12473018 0.16757876 0.08893979
000220 b8 6c 0f 3e b3 07 e3 bd 53 db 1c bd 25 69 45 3e
       0.14006317 -0.11085453 -0.0382951 0.1927839
000230 e0 7e d7 3d 32 d9 33 bd 47 85 89 bc f2 45 9a be
       0.10522246 -0.043908305 -0.016787184 -0.3013149
000240 9d 12 4f be 6b 52 ad 3d ca 08 71 bc c2 de 16 3c
       -0.20221944 0.084629856 -0.014711568 0.009208383
000250 86 7f 4a 3e 50 07 93 bd 9b af 63 3e 83 49 7f 3d
       0.19775209 -0.07179129 0.22234957 0.062325966
000260 bf 00 2d bd 43 6f 99 be b0 ff a8 3e dd bb ba 3d
       -0.04223704 -0.29967698 0.33007574 0.09117863
000270 ba d3 1b be a5 3e a8 be 1b 7a e0 3d bc 6c 11 be
       -0.15217486 -0.32860294 0.1096079 -0.14201635
000280 13 59 fe bd 67 94 17 3e 7a 76 79 bd 46 92 54 bd
       -0.12419333 0.14802705 -0.060904004 -0.05189731
000290 67 b0 df bd 5c 71 22 be 94 99 22 3e a9 aa e4 3d
       -0.10922318 -0.15863556 0.15878898 0.11165363
0002a0 92 f1 2d be 39 82 ac 3d 1f a9 a9 3e 2d d2 b1 bd
       -0.16986683 0.084232755 0.33136842 -0.08682666
0002b0 57 02 6b 3d 1c 6a 0d 3d 13 62 da bd 3e 64 d2 3d
       0.05737528 0.034525022 -0.106632374 0.10273026
0002c0 3f 13 29 3e 4d 90 55 3d 95 ff c8 bd 0f 62 39 3b
       0.16511248 0.05213957 -0.098143734 0.0028287207
0002d0 cc 40 75 bb 0d d6 81 be 65 64 15 3e 0e 7e 8a be
       -0.0037422655 -0.2535862 0.14589079 -0.27049297
0002e0 e2 e0 aa 3c 31 f4 d5 bb d5 e0 dd bd fd c3 42 3e
       0.020859186 -0.006529354 -0.10833899 0.19020076
0002f0 ea a1 70 3d 7c 65 0e 3d 1a 59 c6 bd 44 0d 8c 3d
       0.058748163 0.03476475 -0.096849635 0.06838468
000300 ec b9 64 3e 53 db c1 ba d0 70 51 3e e3 06 2c 3e
       0.22336549 -0.0014790095 0.20453191 0.16799502
000310 fc ed cd 3d 8e 77 9f bd b5 ab ac 3d db b8 71 3d
       0.100551575 -0.07786475 0.08431188 0.059014183
000320 ac 6a 27 bd 6a 75 2c 3e c9 b3 8f 3d 6c 3a 8e be
       -0.040873215 0.16841665 0.07016713 -0.27778947
000330 0d 48 1b 3e 99 92 46 bc 21 ae 28 be f0 ee 51 bd
       0.15164204 -0.012119913 -0.16472675 -0.05125326
000340 7a 6f d7 3c 7c 06 cb 3a 7f 7c 87 be ab 9d 10 be
       0.026298273 0.0015489603 -0.2646217 -0.14122646
000350 c8 3f ec 3d 3b b5 f2 bd 23 b6 d2 bc 3f 59 8a 3e
       0.11535603 -0.11850973 -0.025721615 0.27021214
000360 a7 c6 1d be 22 f3 07 3e 8c ea c6 3d cb fb 80 3e
       -0.15407811 0.13276342 0.09712705 0.25192103
000370 f8 8e 83 3d 74 b2 df bd 7d dc 81 bc 64 18 08 3d
       0.064237535 -0.10922709 -0.015852207 0.033226386
000380 0e 19 c3 3d ad fe 3b 3d 85 fe 4a 3e bc c3 54 3e
       0.09526263 0.045897175 0.19823654 0.20777792
000390 d4 19 e1 3a e5 96 4b 3e 25 f4 89 3d ca 14 20 3e
       0.0017173835 0.1988178 0.0673602 0.1563293
0003a0 f4 26 12 3e 38 fe 6a 3d 0a 45 87 3d b4 64 9b bd
       0.14272672 0.05737135 0.06604965 -0.07587567
0003b0 a4 33 04 3e e8 6f 57 be e3 7f 5d 3e 5a 48 52 3e
       0.12910324 -0.21038783 0.21630816 0.20535412
0003c0 c0 9c 30 3d 22 4d 53 3e 2f 44 ca bd f3 71 6b be
       0.04311824 0.20634893 -0.09876286 -0.22992687
0003d0 7d b0 cc bd 4b b8 70 bd f6 6f 62 3d 81 99 7d 3e
       -0.099946 -0.058769505 0.055282556 0.24765588
0003e0 5b 14 3e 3e b3 eb 12 3e 66 05 6e be 09 7e f8 bd
       0.18562452 0.14347725 -0.23244247 -0.12133414
0003f0 a9 f5 0e be 2e d6 bf bd 19 17 13 be c1 f7 0a 3e
       -0.139609 -0.093670234 -0.1436428 0.13571073

network.1.weight f4 [256]
000000 13 62 84 3f 41 b7 74 3f 53 4d 89 3f aa 4a 82 3f
       1.034243 0.95592123 1.0726722 1.0179036
000010 a8 ab 5b 3f 82 1e 72 3f 79 77 84 3f 03 d0 83 3f
       0.858088 0.945778 1.034896 1.0297855
000020 82 00 83 3f aa 22 81 3f e6 fc 91 3f 89 0b 62 3f
       1.023453 1.0088704 1.1405303 0.8829885
000030 64 ef 8e 3f 49 9a 81 3f 2a 53 7b 3f 25 b5 7b 3f
       1.1166806 1.0125209 0.98173773 0.9832328
000040 ac e8 80 3f 20 25 80 3f 84 03 85 3f 61 d0 6b 3f
       1.0071006 1.001133 1.0391698 0.92114836
000050 f3 24 81 3f b2 21 8c 3f 4d 0f 87 3f c1 43 86 3f
       1.0089401 1.0947783 1.0551544 1.0489427
000060 c1 38 63 3f ba 8e 77 3f d0 19 8b 3f 38 18 87 3f
       0.88758475 0.9670216 1.0867252 1.0554266
000070 22 f1 8f 3f 0c ea 82 3f 5b 02 6a 3f 79 c8 86 3f
       1.1245463 1.0227675 0.91409844 1.0529929
000080 ba 2b 91 3f 4d ef 87 3f 54 08 7e 3f 2b 4d 84 3f
       1.1341469 1.0619904 0.9923146 1.033605
000090 9f 1d 7b 3f e8 3a 6a 3f a9 a5 91 3f 6b 49 76 3f
       0.98092073 0.91496134 1.137868 0.96205777
0000a0 a7 57 90 3f 12 d6 89 3f 90 03 7a 3f bc 1d 71 3f
       1.1276749 1.0768454 0.97661686 0.94185996
0000b0 35 61 86 3f fd 65 79 3f db 2b 82 3f aa 8f 6c 3f
       1.0498415 0.97421247 1.0169634 0.92406714
0000c0 b1 6b 5c 3f bf 14 81 3f 8b bc 86 3f bc 92 73 3f
       0.86101824 1.0084456 1.0526289 0.95145774
0000d0 44 23 73 3f 8b ce 93 3f f0 85 5d 3f a6 df 7b 3f
       0.94975686 1.1547407 0.865325 0.98388135
0000e0 80 f0 84 3f a3 90 63 3f 76 61 84 3f 10 df 68 3f
       1.0385895 0.88892573 1.0342243 0.90965366
0000f0 6c dc 67 3f 52 44 86 3f 02 e6 6d 3f d0 3a 6c 3f
       0.9057071 1.04896 0.9292909 0.9227724
000100 1f e3 7c 3f 17 cc 7b 3f d6 6a 84 3f 52 61 7d 3f
       0.9878406 0.9835829 1.0345104 0.98976624
000110 1d 1e 68 3f 74 ad 71 3f 62 66 77 3f a1 82 6c 3f
       0.9067095 0.94405293 0.966406 0.92386824
000120 7c 56 71 3f 8d 6d 6e 3f 3c a3 5e 3f 4b 79 6d 3f
       0.9427259 0.9313591 0.86967826 0.92763203
000130 cf f6 8a 3f 23 d4 80 3f dc 74 79 3f 2d e7 75 3f
       1.085657 1.0064739 0.9744394 0.9605587
000140 b2 33 83 3f c0 b4 75 3f ba 5e 86 3f b0 23 7d 3f
       1.0250151 0.9597893 1.0497658 0.9888258
000150 d0 4d 72 3f c2 01 7c 3f df c0 6d 3f 32 9a 7f 3f
       0.9464998 0.9844018 0.9287242 0.9984466
000160 44 ad 85 3f a3 51 7e 3f 71 23 5d 3f 54 ce 66 3f
       1.0443501 0.9934332 0.86382204 0.9015858
000170 82 83 70 3f 62 67 81 3f 97 1e 8c 3f 59 ee 82 3f
       0.93950665 1.0109675 1.0946835 1.0228988
000180 b3 b5 6a 3f f7 78 81 3f 47 f9 76 3f 73 62 6b 3f
       0.916835 1.011504 0.9647412 0.91947097
000190 b0 f5 8d 3f bc 61 8c 3f f2 1a 82 3f 80 88 75 3f
       1.1090603 1.0967326 1.0164473 0.9591141
0001a0 81 70 6f 3f ad c1 67 3f 9b c3 66 3f 48 51 6a 3f
       0.9353104 0.905299 0.9014222 0.91530275
0001b0 c5 65 74 3f 5d c4 65 3f 3e cb 81 3f 5e 8c 83 3f
       0.9546779 0.8975275 1.014015 1.0277212
0001c0 be c0 8f 3f b7 1d 8d 3f e2 7d 64 3f 8c 51 71 3f
       1.1230695 1.1024693 0.8925458 0.94265056
0001d0 1e bb 70 3f 56 2d 86 3f 2a 2c 7d 3f 02 d0 79 3f
       0.9403552 1.0482585 0.98895514 0.9758302
0001e0 44 fb 5a 3f 38 70 88 3f 5b f5 86 3f b2 91 81 3f
       0.8553965 1.0659246 1.0543627 1.0122588
0001f0 5d 2d 80 3f 44 c4 6d 3f c3 db 84 3f 52 0f 86 3f
       1.0013844 0.928776 1.0379566 1.0473425
000200 a2 7c 85 3f d5 cd 50 3f 38 02 80 3f cc 66 71 3f
       1.042866 0.81564075 1.0000677 0.9429748
000210 39 bb 8a 3f 15 dd 7d 3f 1c cc 83 3f 1b 58 83 3f
       1.0838386 0.9916547 1.0296664 1.0261263
000220 3f b6 7d 3f f8 c3 61 3f 8d 99 84 3f 50 29 83 3f
       0.9910621 0.8818965 1.035936 1.0246983
000230 3a c3 6e 3f 41 ac 78 3f 80 91 7a 3f 80 96 70 3f
       0.9326664 0.9713784 0.97878265 0.93979645
000240 63 09 72 3f 83 34 6d 3f 57 67 69 3f aa eb 6c 3f
       0.94545573 0.9265825 0.9117331 0.92547095
000250 26 4f 6b 3f 0d f7 7e 3f f6 58 7a 3f 54 50 8e 3f
       0.91917646 0.9959572 0.97791994 1.1118264
000260 ea 92 80 3f 96 1b 82 3f 2f fa 7a 3f 57 94 7b 3f
       1.0044835 1.0164669 0.98038 0.98273224
000270 2a a6 81 3f 47 0c 73 3f 8c 23 89 3f 84 32 8b 3f
       1.0128834 0.9494061 1.0713973 1.0874791
000280 e5 25 71 3f 48 f5 7d 3f 9b 77 82 3f 9e cc 80 3f
       0.9419845 0.99202394 1.0192751 1.0062444
000290 d5 80 85 3f 07 ca 93 3f 1e 63 7c 3f c3 3d 59 3f
       1.0429941 1.1546029 0.9858874 0.84859866
0002a0 8f 01 71 3f b0 be 78 3f 33 10 77 3f 21 4d 78 3f
       0.94143003 0.97165966 0.96509093 0.9699269
0002b0 4d c8 68 3f 79 80 87 3f b3 2b 80 3f fe eb 66 3f
       0.90930635 1.0586082 1.0013336 0.90203846
0002c0 42 e0 62 3f 1a 83 89 3f b8 d8 87 3f 62 7b 80 3f
       0.8862344 1.0743134 1.0613012 1.0037653
0002d0 42 3e 8c 3f d4 bd 81 3f fc 21 75 3f 8d 78 7f 3f
       1.09565 1.0136056 0.9575498 0.9979332
0002e0 49 f4 81 3f 39 fe 65 3f 91 28 6e 3f fc 24 94 3f
       1.0152675 0.8984104 0.9303065 1.1573787
0002f0 13 99 71 3f 94 6c 87 3f 8e 59 73 3f 73 82 74 3f
       0.943742 1.058001 0.95058525 0.9551155
000300 54 aa 8e 3f 69 dd 74 3f d8 0f 86 3f a1 8c 88 3f
       1.114573 0.95650345 1.0473585 1.0667917
000310 40 ea 5d 3f 02 b2 71 3f 3e e4 7a 3f 0f 61 84 3f
       0.8668556 0.94412243 0.9800452 1.034212
000320 80 d1 70 3f cb 7d 7a 3f 3e 66 74 3f 84 f5 79 3f
       0.9406967 0.97848195 0.9546851 0.9764025
000330 59 7c 83 3f 95 9e 6f 3f 4a e6 80 3f 41 93 63 3f
       1.0272323 0.9360135 1.0070279 0.88896567
000340 c3 d4 77 3f 47 1b 8b 3f 99 a2 7b 3f bd 19 74 3f
       0.96809024 1.0867699 0.9829498 0.95351774
000350 35 f2 71 3f 98 7d 67 3f a1 a9 77 3f 5d 04 7e 3f
       0.94510204 0.90426016 0.9674321 0.9922541
000360 36 3d 82 3f 8d 86 81 3f 86 c9 7f 3f 72 17 5f 3f
       1.017493 1.0119187 0.99916875 0.8714515
000370 0d 72 80 3f f9 b0 82 3f fa f6 7a 3f 5d d4 86 3f
       1.0034806 1.0210258 0.98033106 1.0533558
000380 40 dd 8e 3f 9d 6e 7d 3f f4 62 89 3f 0f a7 65 3f
       1.116127 0.9899691 1.0733323 0.89708036
000390 b3 ad 70 3f c4 93 85 3f c3 8c 79 3f de 72 76 3f
       0.94015044 1.043572 0.9748041 0.96269023
0003a0 56 6c 67 3f 99 55 82 3f 78 52 8c 3f 14 60 5a 3f
       0.9039968 1.0182372 1.0962667 0.85302854
0003b0 19 eb 66 3f 52 9e 6d 3f 8e 47 84 3f 73 29 83 3f
       0.9020248 0.928197 1.0334337 1.0247024
0003c0 cc e2 7f 3f 51 5f 85 3f ea 38 77 3f 04 12 6d 3f
       0.9995544 1.0419713 0.9657122 0.92605615
0003d0 1a c4 92 3f d9 80 6d 3f a6 cf 7e 3f 3f 2a 5b 3f
       1.1466095 0.9277473 0.99535596 0.8561134
0003e0 7c 57 87 3f 2f 04 7c 3f a4 ba 40 3f 6e 45 74 3f
       1.0573573 0.98443884 0.7528479 0.9541844
0003f0 a6 ef 72 3f 6e 99 76 3f 68 9c 7f 3f b0 09 73 3f
       0.94896924 0.96327865 0.9984803 0.94936657

network.1.bias f4 [256]
000000 f1 9d 8e bd 1f ba ca bd a2 10 85 bd 63 4b a4 bd
       -0.06963719 -0.09898781 -0.06497313 -0.080221914
000010 1b 30 4d be 5b 90 b0 bd d8 cf fc 3b 84 32 f7 3d
       -0.20037882 -0.086212836 0.0077152066 0.12070182
000020 96 c8 4f 3c fc 9a 14 be f2 07 b7 bc 83 30 90 bd
       0.012682101 -0.14512247 -0.022342656 -0.07040503
000030 e6 7d 1c 3e 13 bd 72 bd e3 58 b4 bd c5 02 17 be
       0.15282401 -0.059262346 -0.08806016 -0.1474715
000040 11 90 0c 3d f0 bd 80 bd e9 c0 b8 3d 9c 9a 22 be
       0.03431708 -0.06286228 0.0902117 -0.15879291
000050 59 3c b2 bd 65 b7 c3 bc df bf 6f bd 91 c6 82 bd
       -0.08702917 -0.02389116 -0.058532592 -0.0638553
000060 fb 24 6f bc 2b 44 4a bb 88 61 72 bd 16 45 99 bc
       -0.014596219 -0.0030863385 -0.059175044 -0.0187097
000070 87 73 79 bb 53 78 0a be fe d3 ac bd 3b 81 60 bd
       -0.0038063244 -0.13522463 -0.08438872 -0.054810744
000080 d4 e8 44 bd 4c be 2f 3d 12 7d b2 3c 2a 53 ce 3d
       -0.048073605 0.04290609 0.021788154 0.10074456
000090 89 3e be bd 2b d8 04 be e4 a7 d5 3c 3f a5 07 be
       -0.092892714 -0.12973087 0.026081033 -0.1324663
0000a0 2d 3f e9 bd 04 f2 48 3d c1 e9 79 bd 3b b9 8a bd
       -0.11389003 0.04905893 -0.06101394 -0.06773611
0000b0 0d 9a 65 3d a9 3e 20 3c 47 dd dc 3c b3 ad 17 be
       0.056055117 0.009780564 0.026960982 -0.14812355
0000c0 89 0d f3 bd 97 36 25 3c 00 7d 60 3b 6b 1f a8 bd
       -0.11867816 0.010083816 0.0034254193 -0.082091175
0000d0 9f bf 0d be 58 6e 04 3e b4 70 92 bd 8a 1b 9d bd
       -0.13842629 0.12932718 -0.07150403 -0.07671268
0000e0 aa ec 20 bd 0b 59 ae bd 8f b8 ee bd 07 2a f2 bd
       -0.0392882 -0.08513077 -0.116562955 -0.11824422
0000f0 bf 7f a0 bd b3 87 11 be d6 da ff b8 c9 96 11 be
       -0.07836866 -0.14211921 -0.00012200109 -0.14217676
000100 c2 a5 2b be 2d eb 91 bc 18 df 67 bd 06 bf a7 bd
       -0.1676245 -0.017812336 -0.056609243 -0.08190732
000110 6a dd 68 bd d9 3d e4 ba 1f 9b b7 3c a6 7f 0a be
       -0.056851782 -0.0017413452 0.022412835 -0.13525257
000120 01 5e e0 3b 12 a6 c7 bd cd 07 28 be b7 4a 5d 3c
       0.0068471436 -0.09748472 -0.16409226 0.013506583
000130 fc 28 0a 3d f2 89 b8 bc 63 21 77 bd b2 1f 53 bd
       0.033730492 -0.022526715 -0.060334574 -0.0515439
000140 0b f3 ea 3d 22 0c 3a be 44 c6 b2 bc d0 f9 56 3c
       0.11472138 -0.18168691 -0.021823056 0.013121083
000150 26 23 57 bc 7e 35 d2 bd a9 9e 25 be 0c 03 b7 bd
       -0.013130939 -0.10264109 -0.16173805 -0.08936128
000160 61 ca c8 3c 97 c9 22 bd 91 58 dc bd 02 0a 6b be
       0.024510564 -0.039743032 -0.1075908 -0.22953036
000170 21 0d 8a bd ce 98 e2 bd 3f 98 1e 3d b6 c8 b0 bd
       -0.067407854 -0.110643014 0.038719412 -0.086320326
000180 82 68 89 bd 87 49 c9 bd 7e 5b e0 bc 86 1f c4 bd
       -0.067093864 -0.09828477 -0.027387377 -0.09576325
000190 8e 71 39 3c 2e 81 3d b9 39 97 6c bb ee f3 98 3c
       0.011318577 -0.00018072568 -0.0036100878 0.018671002
0001a0 9e f1 45 bd 47 94 39 be d7 71 05 3d 1f ef 43 be
       -0.048326127 -0.1812297 0.03257927 -0.19134186
0001b0 6b 0f 85 bd 95 c2 2b be 85 b3 f5 bd be b3 ec bc
       -0.06497081 -0.16773446 -0.11997131 -0.028894302
0001c0 78 11 0f bc 4b 7a 19 3e 8c b1 d6 bd 6d 46 5c 3b
       -0.008732192 0.14988057 -0.10483083 0.0033611313
0001d0 3f b4 26 bd db 94 2c bd 91 3b af bd 46 4b e9 bc
       -0.04069924 -0.042134147 -0.08556283 -0.028478276
0001e0 ab 88 7f bd 56 1b f9 bc 66 61 2a be fd 46 e0 3b
       -0.062386196 -0.030408543 -0.16638717 0.0068444
0001f0 c7 db 7e bb 00 dd e6 bd 0a 22 67 bd 8d ee 04 bb
       -0.0038888322 -0.11272621 -0.056428947 -0.002028379
000200 37 25 8c bc d0 21 ab bd ce 8d c0 bc b4 c8 40 bd
       -0.01710759 -0.083560586 -0.023505118 -0.047066405
000210 ea 39 cb bc f4 05 d0 bc 30 d7 bc bd 20 ea ad bd
       -0.024807889 -0.025393464 -0.09220731 -0.084919214
000220 a3 b9 6f bc 8e b9 42 be 9c fb 8a 3c c9 a4 f8 bd
       -0.014631662 -0.19016096 0.01696568 -0.12140805
000230 61 c6 39 be 84 91 52 3c d5 f4 07 3d 85 7a a2 bc
       -0.18142082 0.012852076 0.033192474 -0.019833812
000240 cc b9 7c bd 41 f2 8d bd 68 67 8f bd b4 84 e2 bc
       -0.061700627 -0.06930972 -0.07002145 -0.027651168
000250 93 32 b9 bd 2a ef 83 bb 8b 4b 8d bd b3 8c 67 3d
       -0.090428494 -0.0040263133 -0.06899174 0.056530666
000260 cd c1 bd 3c dc 2c b0 3c f1 7e 2c be f4 2f 1f bd
       0.0231637 0.021505766 -0.168453 -0.03886409
000270 1a 45 53 3c e9 22 f0 bd 0c bf 34 bd 05 ee 8f bd
       0.012894893 -0.117254086 -0.04412751 -0.070278205
000280 85 5f 00 be 69 b6 15 3d ec c2 92 bd 60 1b bf bd
       -0.12536438 0.036550913 -0.07166085 -0.09331393
000290 b3 70 29 bd 07 3c 9e 3d e9 c3 87 bc 0c fe 44 be
       -0.041367244 0.07726293 -0.01657291 -0.19237536
0002a0 2b 55 03 be 79 d5 b8 bd df 33 04 bd 83 70 63 3c
       -0.12825458 -0.09025092 -0.03227603 0.013881805
0002b0 d9 aa 22 be a0 2b ac 3d 3a 96 16 bc 10 33 7d bd
       -0.15885486 0.08406758 -0.00919109 -0.061816275
0002c0 14 19 d8 bd dd b3 49 be 5b 18 76 ba 92 3c d8 b9
       -0.10551658 -0.19697519 -0.00093877845 -0.0004124386
0002d0 5a ee 28 3c bf 34 ca 3c b3 9e 98 bd 4f df c8 bc
       0.010310734 0.024683354 -0.074521445 -0.024520544
0002e0 36 fc 0a 3d 31 fa 00 be 8a fe 73 bc 29 79 38 bb
       0.033931933 -0.1259544 -0.01489223 -0.002814839
0002f0 48 a3 6e bc cb 2c d4 3c eb 12 1b bd 5b 2d f0 bd
       -0.0145652965 0.025900265 -0.03785984 -0.11727401
000300 f6 15 0e 3d 28 b6 c5 bd e0 ed 60 3d 45 9e cf bd
       0.034688912 -0.09653884 0.054914355 -0.101376094
000310 f3 50 25 be 2a 9f 43 3d 26 b7 2d bd b0 81 3b bd
       -0.16144161 0.047759213 -0.042410992 -0.045777977
000320 26 a1 98 bd 6c 1c 34 bd 85 89 17 be 1a 93 20 be
       -0.074526116 -0.043972418 -0.14798553 -0.15681115
000330 e3 ce be bc 46 57 81 bd 18 a3 12 be 8a 12 00 be
       -0.02329201 -0.06315474 -0.14320028 -0.12507072
000340 63 6e fd bd 9f 1d 75 bd 87 ff 8b 3c 64 7a 36 ba
       -0.1237457 -0.059842702 0.017089618 -0.00069609866
000350 11 e3 d2 bd 06 bc 0e be 64 a6 59 bc 65 4f 02 3d
       -0.10297216 -0.13938913 -0.0132842995 0.031813998
000360 39 8d 7a 3d 4d ff 8e 3d aa 24 ae 3c 0d 9f f1 bd
       0.061169837 0.069822885 0.021257717 -0.11797915
000370 8b 62 b4 3b 6d e3 17 3d 2a 3d 0f 3c 1f 39 f2 bb
       0.0055049113 0.037082125 0.00874261 -0.0073920633
000380 9e b9 09 3d 35 5b 66 3d 7c a0 6a 3d db f9 2c bd
       0.033624284 0.056239326 0.057281956 -0.04223047
000390 c8 44 e2 bd 55 e4 2d bd 73 a0 14 bc d0 4a 90 bd
       -0.11048275 -0.042454083 -0.009071457 -0.07045519
0003a0 1e bd b8 bd 11 09 00 be fa ce bf bd 99 23 da bd
       -0.09020446 -0.12503459 -0.093656495 -0.10651321
0003b0 30 d6 f6 bd 68 8c 9b bd 4c 55 72 bc bc dc d4 bc
       -0.12052572 -0.0759514 -0.014790844 -0.02598416
0003c0 04 eb 50 3d b1 f0 9c bc 5e 87 01 bd 44 ab 48 be
       0.05100538 -0.01915774 -0.031623237 -0.19596583
0003d0 e9 0c 95 3d 66 91 9f bd ae a5 a6 bc d7 d4 70 be
       0.07277853 -0.077914044 -0.020342674 -0.23518692
0003e0 27 0b 59 3d ab 61 d9 bd 64 f0 49 be da b2 96 3d
       0.05298915 -0.10614332 -0.19720608 0.07358332
0003f0 07 b0 57 bd 97 f7 5a bd 0f 88 5f be 18 fa 73 3d
       -0.052658107 -0.053458776 -0.21829246 0.05956468

network.1.running_mean f4 [256]
000000 03 44 55 be e7 fc 80 be 7b 02 b6 3d 3a 2e 85 3d
       -0.20826726 -0.2519295 0.08887192 0.06502958
000010 ac 9a b0 3d 16 2a 1a 3e 47 a8 22 3c 2d 97 56 3e
       0.08623251 0.15055117 0.009927816 0.20956106
000020 73 62 32 be 47 75 74 3e 31 9d 0e bd d7 30 18 be
       -0.17420368 0.23872863 -0.03481788 -0.14862381
000030 9e 4d 68 be c1 44 8a 3e a0 a4 82 be 38 d7 07 be
       -0.22685859 0.2700558 -0.25516224 -0.13265693
000040 d3 aa f6 bd c5 e3 3a be 9c 72 06 be 9a 7c 33 be
       -0.12044301 -0.1825095 -0.13129658 -0.17528
000050 b9 3e 1f 3e df 84 94 3e 1e cc 8a be d0 6a 2c 3e
       0.1555127 0.29007623 -0.27108854 0.1683762
000060 72 a7 ee 3d e2 b7 3a 3e 65 90 ca bd 76 cb 16 be
       0.116530314 0.18234208 -0.09890822 -0.14726052
000070 4d 9c e0 bd 1f f9 76 3e 7e a9 37 3e de e9 84 be
       -0.10967312 0.2411847 0.1793575 -0.25959677
000080 9c aa 7e be 2c de de bb b9 17 1b bd e5 d2 f8 bd
       -0.2486977 -0.0068013873 -0.03786442 -0.121496
000090 c6 7e 03 3e 1f bb 7c 3e 87 99 5d be 48 36 ca bd
       0.12841329 0.24680756 -0.21640597 -0.098736346
0000a0 c6 a5 3c 3e 51 69 d4 3d 44 ae d6 bc ec f7 47 3e
       0.18422613 0.1037165 -0.026206143 0.19528168
0000b0 95 c4 20 be 8a 2b 29 3e 40 a3 53 3e fc 22 e5 3d
       -0.1569999 0.16520515 0.20667744 0.11188313
0000c0 6c 27 89 3e f6 56 13 3e 1f 61 5b 3e 09 e9 16 be
       0.2678789 0.14388642 0.21423768 -0.14737333
0000d0 03 69 63 3e 61 6d 2f be 47 f2 83 3e a5 d5 9a 3c
       0.22208028 -0.17131568 0.2577078 0.018900702
0000e0 16 67 b3 3d 2b 0f 80 3e 3e ae 80 be 51 90 20 bd
       0.087598965 0.25011572 -0.25132936 -0.03920013
0000f0 0e f5 24 be a6 cb 37 3e 5d 3a 2b be da 18 86 be
       -0.16109106 0.1794878 -0.16721483 -0.26190835
000100 aa a9 5e 3d 1e 07 05 3e e9 14 a1 3d e4 fc 74 be
       0.054361023 0.12990996 0.078653164 -0.23924595
000110 cd 7b 1f be e3 1d b7 bd 9d 4d 99 bc de 1e 61 3c
       -0.1557457 -0.08941247 -0.018713767 0.0137402695
000120 4d 39 16 bd 07 d0 2f bd 3b 59 8b bd 23 b1 2e 3e
       -0.03667574 -0.042923 -0.06804129 0.1705976
000130 f7 58 00 3e 0a 13 d7 3c 3b f7 b7 bc 1c 67 1b bd
       0.12533937 0.026254196 -0.022456756 -0.03794013
000140 7d c5 64 3d 1a 77 8f 3c 74 c0 62 be a7 c9 3b bd
       0.055852402 0.017512847 -0.22143728 -0.045846608
000150 37 5a 36 3e 5c 0c 95 be 90 17 fa bd 3b 6c 9b bd
       0.17807852 -0.29110992 -0.122115254 -0.07589003
000160 10 2c 05 be 46 1c 9e bd 88 6f 2d 3e 5d cd 0e bc
       -0.1300509 -0.077202365 0.16937077 -0.008715955
000170 ca 3d 94 be 82 5c 47 be ed 73 ef bd 14 f3 c8 3d
       -0.2895339 -0.19468883 -0.11692033 0.098119885
000180 cf a4 ce bd 69 24 aa bd 0d b0 c7 bd 53 52 f5 3d
       -0.100900285 -0.08307726 -0.09750376 0.11978593
000190 71 b8 a1 bd e4 d1 a2 be 6a 1b 32 bd 42 d0 01 be
       -0.078965075 -0.3180076 -0.043483175 -0.126771
0001a0 96 62 bc 3d 17 8d 07 3b d2 22 08 3e 53 8e e3 3d
       0.09198491 0.0020683461 0.13294533 0.111111306
0001b0 63 4e 64 be 93 bd cc 3d 2c c2 81 be d9 cf 2c be
       -0.22295527 0.09997096 -0.25343454 -0.16876163
0001c0 61 2c 2e 3e 4e 20 20 be 83 7c 2e be e3 d6 48 3d
       0.17009117 -0.15637323 -0.17039685 0.049033057
0001d0 54 88 23 bc 48 5f 08 be 68 7c 1a be fd 9f 76 3d
       -0.009981234 -0.13317597 -0.1508652 0.06021117
0001e0 be 25 4c 3e 74 24 50 be a5 eb 4f bd 95 be 3a 3b
       0.19936273 -0.20326406 -0.050761838 0.0028494943
0001f0 00 55 2e 3d 2f c9 eb bc 91 2c 1c 3e bc 47 02 bd
       0.04256153 -0.028782455 0.15251376 -0.031806692
000200 6f b7 0c be 35 f7 24 3b 24 0c 5a 3e 41 75 d5 bd
       -0.1374185 0.002517176 0.21293694 -0.10422755
000210 a2 20 7e 3e c8 c5 de 3d 99 02 11 3e fb e5 b2 3d
       0.24817136 0.108775675 0.14161147 0.087352715
000220 a2 74 1c 3e bf 22 ee bd f5 53 92 3b 4c dc 30 3e
       0.15278867 -0.11627721 0.004465575 0.17271537
000230 12 5b a4 3d de 59 a2 bd a6 d4 88 bc 13 f9 8f be
       0.08025183 -0.07927297 -0.016702961 -0.28119716
000240 2e b5 52 be 8f f7 74 3d e1 0f 2a bc 61 be b1 bc
       -0.20576927 0.059806403 -0.010379762 -0.021697225
000250 ae b4 15 3e df c3 b5 bd 4f eb 7f 3e c8 aa 41 3d
       0.14619705 -0.0887525 0.24992107 0.04728201
000260 7a 08 29 bd 59 74 98 be 4a e2 ad 3e a0 b8 b6 3d
       -0.04126785 -0.29776266 0.33961707 0.08921933
000270 11 49 11 be 64 40 a5 be c7 43 9b 3d 59 5e 17 be
       -0.14188029 -0.3227569 0.07581287 -0.14782085
000280 ce ca 12 be 0a e0 0d 3e 15 01 ce bb 81 36 1d bd
       -0.14335176 0.13854995 -0.00628675 -0.038382057
000290 29 bd 22 be 85 b8 33 be d8 f6 25 3e 8c f7 e8 3d
       -0.15892471 -0.17550857 0.16207445 0.11375341
0002a0 4a 73 4d be 3d 0a b5 3d d3 4e 9a 3e d2 94 a6 bd
       -0.2006351 0.088398434 0.30138263 -0.08133854
0002b0 7d 24 5f 3d 11 56 3e 3d 7d cd c5 bd fe 22 84 3d
       0.054478157 0.046468798 -0.096583344 0.06451987
0002c0 0a 4a 3d 3e 95 3a ed 3c c0 a5 bc bd 7e 35 49 3c
       0.18485275 0.028958598 -0.09211302 0.01228082
0002d0 3f 9c c0 bc da 5e 85 be ec ac 1a 3e 07 7b 84 be
       -0.023512004 -0.26048928 0.15105027 -0.25875112
0002e0 db 37 08 3c a5 87 38 3c 3b bc c1 bd 48 4c 3a 3e
       0.008314098 0.011262809 -0.0945973 0.18193161
0002f0 19 c9 a8 3d 36 0a b8 bb f5 e8 ab bd 9d 3c 33 3d
       0.08241481 -0.0056164516 -0.083940424 0.043758977
000300 34 ae 47 3e aa 32 f6 3c d7 6b 51 3e e0 20 32 3e
       0.19500047 0.030053455 0.20451294 0.17395353
000310 bb f9 e8 3d 55 82 ad bd b3 c1 c0 3d a2 52 79 3d
       0.11375757 -0.084721245 0.09411945 0.06086982
000320 21 05 6a bd 3c ef 21 3e 4f 3d 9a 3d fb 65 9a be
       -0.057133798 0.15813917 0.07531225 -0.3015593
000330 0b 3e 1b 3e 4e 53 88 3b 28 ec 22 be 8a 16 27 bd
       0.15160386 0.0041603213 -0.15910399 -0.04079298
000340 fc 09 4e 3d 3a 01 58 bc fc ea 87 be 67 01 08 be
       0.05030249 -0.013183886 -0.26546466 -0.13281785
000350 0d 55 ec 3d dc be d6 bd e3 a5 f6 bc 18 48 7f 3e
       0.1153966 -0.10485622 -0.030108398 0.24929845
000360 ff aa 23 be 4a ea 15 3e e2 09 11 3e 9d 65 69 3e
       -0.15983199 0.14640155 0.14163926 0.22792669
000370 b8 3e 88 3d 30 a8 b5 bd 37 5c 88 3b c1 bb e2 3a
       0.06652588 -0.0886997 0.0041613835 0.0017298387
000380 b1 cb ef 3d 96 a3 63 3d 55 98 58 3e 2d 30 74 3e
       0.11708773 0.05557593 0.2115186 0.23846503
000390 77 0a 91 bc e8 ed 59 3e 3c 06 ce 3d e0 c1 12 3e
       -0.017705185 0.2128216 0.10059783 0.1433177
0003a0 a2 06 ff 3d d1 bc 33 3d dc 9e 33 3d 3f 64 ad bd
       0.12452437 0.04388124 0.043852672 -0.08466386
0003b0 3a ff 1a 3e c3 a6 54 be d9 69 38 3e de 0b 47 3e
       0.15136424 -0.2076674 0.18009128 0.1943812
0003c0 42 16 10 3d 5d c1 58 3e 20 e5 ae bd 9f f9 5c be
       0.035177477 0.21167512 -0.08539796 -0.21579598
0003d0 9d e4 dc bd 04 f0 82 bd a5 3f f0 3c 3e a8 63 3e
       -0.10785792 -0.063934356 0.029327223 0.22232148
0003e0 0f e5 2f 3e 06 17 06 3e 1b 20 75 be 9c ad 09 be
       0.17177223 0.1309472 -0.23938029 -0.13445133
0003f0 46 69 34 be b2 55 a5 bd 57 d2 29 be 4e df 24 3e
       -0.17618284 -0.08072986 -0.16584145 0.16100809

network.1.running_var f4 [256]
000000 da d7 d0 3e 43 47 ad 3e 51 3f 85 3e 4f 5e 98 3e
       0.40789682 0.3384343 0.2602487 0.29759452
000010 80 dd 86 3e dc 92 a6 3e b6 ba 60 3e 41 d0 cb 3e
       0.26340866 0.3253392 0.21946225 0.39807323
000020 a8 91 30 3e f1 fc a3 3e 6e 60 cc 3e e1 de 0a 3f
       0.17243063 0.32028916 0.3991732 0.54246336
000030 20 b2 99 3e 3b 31 93 3e 87 90 05 3f df f3 10 3f
       0.3001871 0.28748497 0.52173656 0.5662212
000040 bf 11 07 3f b7 98 42 3f 7a 8b 56 3e 0c 08 42 3f
       0.52761453 0.76014274 0.20951644 0.7579353
000050 cf 9f da 3e 9a 4d 24 3f f9 11 b0 3e 26 1e b5 3e
       0.4270005 0.6418091 0.34388712 0.35374564
000060 57 57 2d 3e bc f0 7d 3e 69 0c 12 3f 3b 3c e1 3e
       0.16927849 0.24798864 0.57050186 0.43991265
000070 82 12 55 3e 2a fe e6 3e 36 23 32 3e 41 ff 97 3e
       0.20807841 0.45115787 0.17396244 0.2968693
000080 95 76 e5 3d 1b 05 00 3f 38 9d a0 3e 6e f5 aa 3e
       0.11204258 0.5000779 0.31369948 0.33390373
000090 3f 46 f3 3e fb db c0 3e 4c 7e 8f 3e 75 c8 c9 3e
       0.4751453 0.37667832 0.28026044 0.3941075
0000a0 52 9e c2 3e 8f 97 af 3e 69 60 9f 3e ef ee ff 3e
       0.38011414 0.34295318 0.31128243 0.4998698
0000b0 01 4f ad 3e e7 9e 6d 3e 41 0c 94 3e 36 b6 0d 3f
       0.33849338 0.23205148 0.289156 0.55356157
0000c0 5a 3b d9 3e e5 9f 83 3e e8 0b 92 3e 79 be 6b 3e
       0.42428094 0.25707927 0.2852471 0.23021878
0000d0 a8 76 da 3e f6 8e 7a 3e f4 14 fc 3e 0e fd bd 3e
       0.42668653 0.24468598 0.49234736 0.37107128
0000e0 90 3e 0a 3e fd d4 e9 3e 15 1d bf 3e d1 3a 2f 3f
       0.13500428 0.4567031 0.37326875 0.6844912
0000f0 dd 6b ce 3e b0 08 bf 3e 58 80 f1 3e cd 8f b6 3e
       0.40316668 0.37311316 0.4716823 0.35656586
000100 aa 50 c7 3e fe 21 e2 3e be 1e b4 3e c6 27 f6 3e
       0.3892873 0.4416656 0.35179704 0.4807722
000110 0c d8 ee 3e a2 36 da 3e 46 ed d0 3e e6 01 b1 3e
       0.46649206 0.42619807 0.40806025 0.3457176
000120 a5 f1 8b 3e 27 b8 58 3e 76 1c b3 3e 70 49 8d 3e
       0.27332798 0.21163999 0.3498265 0.2759509
000130 dc 09 38 3e 0c a1 87 3e 14 07 7c 3e f4 b1 ba 3e
       0.17972511 0.26490057 0.24612075 0.36463892
000140 79 72 d9 3e 7c 59 ca 3e 76 7b 33 3f 19 e4 a6 3e
       0.42470148 0.39521396 0.7011026 0.325959
000150 8d e8 87 3e b0 d7 64 3e 8c 1d 93 3e 3d 5f 56 3f
       0.2654461 0.22347903 0.2873348 0.8373907
000160 01 3f 89 3e 14 5f 71 3f 82 26 d1 3e d4 ea c8 3e
       0.2680588 0.942857 0.40849692 0.3924166
000170 f3 46 8c 3e e1 ea c2 3e ef 90 4c 3e b4 b7 97 3e
       0.2739788 0.38069823 0.19977163 0.29632342
000180 36 f2 ae 3e 38 0d 90 3e 34 d0 bf 3e 25 36 9b 3e
       0.34169167 0.28135085 0.37463534 0.30314746
000190 f9 d8 e9 3e 74 e4 6e 3e cf b9 85 3e 6b 88 83 3e
       0.4567335 0.23329335 0.26118323 0.25690016
0001a0 da 37 83 3e 03 cc e6 3e 0a db bf 3e 58 0a 61 3e
       0.2562855 0.45077524 0.374718 0.21976602
0001b0 0a 5e 93 3e 47 b6 ab 3e 72 1e b0 3e 77 6a c5 3e
       0.28782684 0.33537504 0.34398228 0.3855779
0001c0 fe d2 5c 3e 69 94 a4 3e 81 a0 ef 3e 77 37 0e 3f
       0.21564862 0.32144478 0.46802142 0.5555338
0001d0 22 3f c5 3e 83 d0 0d 3f 05 23 71 3e 98 cb 02 3f
       0.3852473 0.5539629 0.23548515 0.5109191
0001e0 08 37 d8 3e 89 fb 96 3e 3c 53 06 3f 7f 1c a1 3e
       0.42229486 0.2948878 0.52470756 0.31467053
0001f0 60 dc b6 3e 63 9a cb 3e 9b 7d ba 3e bb 18 6a 3e
       0.35715008 0.39766225 0.36423954 0.22860996
000200 77 51 24 3f cf d6 0f 3f b1 7b a2 3e 70 de a9 3e
       0.64186805 0.56187147 0.31734994 0.3317752
000210 92 35 25 3f 68 4b d5 3e 20 75 f4 3e 1c bd b0 3e
       0.64534867 0.41659093 0.4774561 0.3451928
000220 9c 0e cd 3e 91 ad f3 3e 52 45 8b 3e 29 b8 55 3e
       0.4005021 0.47593358 0.27201325 0.20871033
000230 5b c9 c7 3e ac 4a a5 3e 1d 75 01 3f c8 2f c7 3e
       0.3902081 0.32283533 0.50569326 0.38903642
000240 57 ce 99 3e 5a 5e 84 3e f4 b1 99 3e 53 c5 f6 3e
       0.30040237 0.25853235 0.3001858 0.4819742
000250 8d d2 cb 3e 77 96 a1 3e 58 7d 12 3f b0 94 b9 3e
       0.39809075 0.31560108 0.5722251 0.36246252
000260 14 a0 ee 3e 55 f7 93 3e 01 31 d2 3e db c8 d4 3e
       0.46606505 0.28899637 0.41053012 0.4155949
000270 4c 25 83 3e b1 eb c4 3e 39 24 0b 3f 75 b1 eb 3e
       0.25614393 0.38461068 0.54352146 0.46033826
000280 51 27 9c 3e 4f aa a0 3e 18 76 9b 3e 51 32 9a 3e
       0.30498746 0.31379935 0.30363536 0.30116513
000290 00 a2 9b 3e dc 5c 4f 3e ce 0a a9 3e f9 b1 b2 3e
       0.30397034 0.20250267 0.33016056 0.34901407
0002a0 8a 22 46 3f 2c e5 ee 3e 8d b8 8b 3e e9 b7 90 3e
       0.7739645 0.4665922 0.2728924 0.28265312
0002b0 5a b7 b4 3e 8b 88 83 3e 4c 9c 06 3f 4c a8 ac 3e
       0.35296136 0.25690112 0.5258224 0.3372215
0002c0 84 e0 b1 3e 04 1d 9f 3e 41 be f7 3e f9 0e ae 3e
       0.34741604 0.31076825 0.4838734 0.33995798
0002d0 4a 26 bd 3e 47 db b1 3e 75 46 a2 3e 8e c8 f9 3e
       0.36943275 0.34737608 0.3169438 0.48785824
0002e0 2d f3 5a 3e e9 95 8d 3e 0b 0a d1 3e f9 5c 10 3e
       0.21381827 0.27653435 0.40827975 0.14097966
0002f0 3c e1 34 3f 6e 75 68 3e 56 23 d9 3e cb 13 75 3f
       0.7065618 0.22701046 0.42409772 0.95733327
000300 fd 8f 35 3e 87 55 a6 3e c1 0e cf 3e 24 d4 05 3f
       0.17730708 0.32487127 0.40440944 0.52276826
000310 62 32 bc 3e 50 43 db 3e 76 02 cb 3e 90 0e 12 3f
       0.3675719 0.42824793 0.39650315 0.5705347
000320 8e f5 a8 3e 64 9c a8 3e 15 e5 80 3e d9 df 97 3e
       0.32999843 0.32931817 0.25174776 0.2966297
000330 c7 ec 3f 3e 73 5f 9a 3e b2 a1 f6 3e f6 74 87 3e
       0.18742667 0.30150947 0.4817024 0.26456422
000340 b4 fa 8b 3e 00 cf e0 3e 15 e7 88 3e a7 d6 9a 3e
       0.2733971 0.43907928 0.26738802 0.30241892
000350 90 ee 18 3f 7b f7 bd 3e e1 cf 85 3e 93 48 1e 3f
       0.5973902 0.37102875 0.26135162 0.6182949
000360 60 d6 70 3e de cb c7 3e fb 0d 97 3e 3e 86 f0 3e
       0.23519278 0.39022726 0.29502854 0.4697742
000370 bb 29 87 3e aa ea 0a 3f 96 75 c1 3e c4 5e 1e 3f
       0.26399025 0.5426432 0.37785023 0.6186335
000380 97 d1 9a 3e 01 c4 60 3e 0e 7e 6f 3e 6d 49 42 3f
       0.3023803 0.2194977 0.2338793 0.7589329
000390 be 60 d0 3e 9e 1f 76 3e bb 1d 51 3e 8e b3 28 3f
       0.40698808 0.24035498 0.20421498 0.6589898
0003a0 98 59 85 3f b2 35 5e 3e fc 21 a3 3e 9e 79 e0 3e
       1.0417967 0.2170017 0.31861866 0.43842787
0003b0 a0 27 e1 3e fa a1 ad 3e 91 14 b3 3e 74 1b 66 3e
       0.43975544 0.3391264 0.34976628 0.2247141
0003c0 f5 cf 8e 3e e8 90 9a 3e 7b 1b 15 3f 83 3b 59 3e
       0.27893034 0.3018868 0.58245057 0.21214108
0003d0 a6 87 2b 3e a3 bc 83 3e 97 be 9c 3e 1f 9b aa 3e
       0.16750965 0.25729856 0.3061416 0.33321473
0003e0 93 3a b4 3e f3 47 98 3e 79 a3 16 3f a8 ff cb 3e
       0.3520094 0.29742393 0.5884319 0.39843488
0003f0 5d 5a 04 3f f1 f5 da 3e 02 20 4b 3e f5 b8 af 3e
       0.51700383 0.42765763 0.19836429 0.343208

network.4.weight f4 [128, 256]
000000 43 28 9c bd 55 d6 b6 bc c1 67 48 bd 7a 5a 05 3b
       -0.07624867 -0.022318998 -0.048927072 0.0020348118
000010 ae 3e a6 3d c8 12 8e bd 01 18 ac 3a 89 82 23 be
       0.08117424 -0.06937176 0.0013129712 -0.15967764
000020 72 1d ee bd 6d a3 c2 bd cd ca a1 bd 72 44 b0 3c
       -0.1162671 -0.09503827 -0.07900009 0.021517012
000030 2e b4 71 3d 29 87 86 bb 38 aa c0 3d 85 dc 5f 3d
       0.059009723 -0.004105468 0.09407467 0.054653663
000040 81 19 ac bd 26 15 26 3d 30 0e d5 3d 05 9f c0 bc
       -0.08403302 0.040547512 0.10403097 -0.023513326
000050 1f 80 8c 3d 73 38 ba bd d2 b7 98 bd 2f 67 0e bd
       0.06860375 -0.09092798 -0.07456936 -0.034766372
000060 7d 40 33 bd af 7a c2 bd 11 fe a8 bd aa 30 07 3e
       -0.043762673 -0.09496056 -0.08251584 0.13202158
000070 24 ed 8c bd b4 94 38 3b 5d 11 aa bd af 51 df 3c
       -0.068811685 0.0028164806 -0.08304093 0.02726063
000080 ea 29 de bd a4 6e 68 3d 30 65 07 bd 21 71 40 3d
       -0.10847838 0.05674614 -0.033055484 0.046982888
000090 89 9d 7a bd d5 57 01 3e e8 04 5a bd 83 29 e5 3d
       -0.061185393 0.12631162 -0.053227335 0.11189558
0000a0 df 14 f6 bd 06 ea bb 3d 9e 31 09 3d 98 8a e4 3c
       -0.120156996 0.09175496 0.033494584 0.027898118
0000b0 00 9f 1f 3d d4 6e 86 bd 57 2d 87 3d 1b 52 64 bd
       0.038969994 -0.065641075 0.06600445 -0.055742364
0000c0 4c ea ad 3c e8 2f 40 bb 53 60 97 bd 2b aa 27 bc
       0.021229886 -0.002932543 -0.07391419 -0.010233442
0000d0 dd 11 49 bc 8b 92 5b 3c de b8 a9 3d 0f de 90 3c
       -0.012272325 0.013401638 0.08287214 0.01768401
0000e0 46 9c ba bd 85 c7 0b 3c 87 e8 88 3d 73 79 04 bd
       -0.09111838 0.008531456 0.06684976 -0.032342386
0000f0 12 42 ca 3d d3 30 64 3d 57 4c 13 3d e7 a1 55 bd
       0.09875883 0.055710625 0.035961475 -0.052156355
000100 0e c7 0b bd e8 80 29 bc a4 12 95 3d b6 ca 89 3d
       -0.03412538 -0.010345675 0.07278946 0.06728117
000110 d5 17 56 3d 79 64 0d 3c 9f 64 bb 3d 00 dc 7a 3d
       0.05226882 0.008629912 0.09150051 0.061244965
000120 d3 fb fc 3c 09 64 c4 bc 02 1e b5 3c 0a a9 86 3d
       0.030881798 -0.023973482 0.022109035 0.065752104
000130 db ad b9 bc 43 14 6b 3d 83 24 14 3e fa 3b 5f bb
       -0.022665909 0.05739237 0.14467053 -0.0034062848
000140 11 e9 94 bd 70 d3 01 3d 7d 17 01 bd 38 96 07 bc
       -0.072710164 0.031695783 -0.03151654 -0.008275561
000150 66 d4 3a 3d fc 0a 8f bd 6c 77 d7 3d 14 db f0 bd
       0.045612715 -0.06984517 0.10520825 -0.11760536
000160 51 dc 8c bc e3 9d 50 3c 51 f1 29 bd 01 55 42 3d
       -0.017194899 0.012732956 -0.041489903 0.047444347
000170 de 2f a3 bc c3 a5 76 bd fa ef 38 3d d0 f1 a4 3d
       -0.019920286 -0.060216676 0.045150734 0.080539346
000180 8b d1 4b bd 70 b4 9d bd 01 6b 3d 3d 3a 91 f2 3d
       -0.049760383 -0.07700431 0.046244625 0.11844106
000190 bc 0a 21 be 56 4b 28 bd 1b 39 97 3d a9 28 8f 3d
       -0.15726751 -0.04108747 0.07383939 0.06990177
0001a0 50 d0 89 3d 16 3f 6e bb 7e 80 cc 3c fa 42 eb bb
       0.067291856 -0.003635352 0.024963614 -0.007179615
0001b0 83 93 9f bd 57 ff 56 3c 3b 35 08 bd 56 b5 e1 bc
       -0.077918075 0.013122401 -0.03325389 -0.027552288
0001c0 4b 9c e5 bd 1f 42 81 3c c6 b8 04 3d b8 14 ea 3b
       -0.11211451 0.0157786 0.032402776 0.007143583
0001d0 25 33 a6 3d 99 a9 cc bd 98 81 d9 3c 17 22 82 3d
       0.08115224 -0.09993286 0.026551053 0.06354158
0001e0 17 87 4b 3b 7b 2e df bd 9a 77 15 bd 36 93 c0 ba
       0.0031055862 -0.10897537 -0.036491014 -0.001469231
0001f0 65 e9 39 bc e7 4d 22 bd 20 6f af bd d8 b6 4f bd
       -0.0113471495 -0.039625075 -0.08566117 -0.050711483
000200 62 28 51 3d 2b 1c 01 bd 72 e4 5b bc 86 89 d0 bb
       0.051063903 -0.031521004 -0.013421165 -0.0063640503
000210 13 63 a7 bd f2 e2 a1 bd df c2 20 3c d4 b4 0d be
       -0.08173194 -0.079046145 0.009812086 -0.13838512
000220 3b e4 16 bd 28 a2 41 3c d5 e2 b8 bb 39 85 16 bd
       -0.03683875 0.011818446 -0.005642275 -0.036748145
000230 c3 2b e1 bc e4 cc ec 3d f3 5b 3c 3d 21 b9 b2 3b
       -0.027486688 0.11562517 0.045986127 0.005454198
000240 7a 61 9e b8 80 9d c6 3c a5 50 bb 3a 84 79 2e 3e
       -7.5521835e-05 0.024245024 0.0014291002 0.17038542
000250 b1 a0 f4 3d 29 db 9c bc a5 8e 78 bd b8 a3 83 bb
       0.11944712 -0.019147472 -0.06068291 -0.0040173195
000260 b3 ea 66 3d 10 5c 04 bd ab 9a 23 bd bc cd 27 bd
       0.05637617 -0.03231436 -0.039942425 -0.040967688
000270 52 d3 64 3c 20 44 58 3d 2b 57 c7 3c 12 f5 63 3c
       0.013966398 0.052799344 0.024333557 0.01391341
000280 a4 e5 68 3c 3b 8d d4 3d 07 ad a7 bd c9 db 38 3d
       0.014214907 0.103785 -0.08187299 0.04513148
000290 13 7f 37 3c 8b 43 95 bd 2d 46 26 bd 7f d5 aa bd
       0.01119973 -0.072882734 -0.04059427 -0.083415024
0002a0 0a 8a a3 3d eb b3 72 3d 3b 32 9b bd b3 f5 75 bc
       0.07985313 0.059253614 -0.0757794 -0.015012193
0002b0 f2 a1 03 bd 91 fd 05 bc 33 99 ca 3d e7 64 9d bc
       -0.032136865 -0.008178131 0.09892502 -0.019213153
0002c0 ac 09 2b bc 83 5d a4 bb 48 3a 93 bd 5c 6a aa 3c
       -0.010439318 -0.0050160303 -0.07188851 0.02080267
0002d0 65 27 a8 bd 26 6e 63 3d f0 72 7e 3d 04 f4 cb bd
       -0.08210639 0.055524968 0.06212133 -0.09958652
0002e0 df fc d1 bd 75 e0 08 bc ca a9 76 3d 9a ff 32 be
       -0.102533095 -0.008354296 0.060220517 -0.17480317
0002f0 22 0f 21 bd 0d 4f 4c bd 42 95 25 bd f5 fe 52 bd
       -0.039321072 -0.049880076 -0.040425546 -0.051512677
000300 17 e4 71 bd 03 d9 c8 3d e7 20 24 3d a4 b8 ef bd
       -0.059055414 0.09807017 0.04007044 -0.11705139
000310 34 11 10 3d c8 26 00 3c 4d 42 5a 3c c6 b6 82 bc
       0.035172656 0.007821746 0.013321471 -0.015956294
000320 6d d2 24 3d a1 34 4d bd f9 27 ae 3d 59 7f 11 3d
       0.04023974 -0.05009902 0.08503718 0.03552184
000330 6b de 07 bd ba f0 b0 bb a6 4b dc bd 65 2b 35 bd
       -0.0331711 -0.0053997906 -0.10756616 -0.044230837
000340 70 25 04 3d f2 31 f1 bd c3 83 59 bd 7b 02 75 bd
       0.032262266 -0.117771044 -0.053104173 -0.05981682
000350 12 1e e2 3b f5 e8 48 3d 49 58 1b bc 64 98 1b 3d
       0.0069005573 0.04905029 -0.009481498 0.037987128
000360 db f6 5a bd 02 13 df 3c 99 13 14 3b 79 c2 13 bc
       -0.053458076 0.027230743 0.002259469 -0.009018534
000370 8c b1 70 3d fc 4a 18 3d dc 47 36 3d 06 7f e9 bd
       0.058763072 0.037180886 0.044502124 -0.11401181
000380 44 ba de 3b 2a 25 66 3c d0 a8 c0 3a 54 c3 2f bd
       0.006797107 0.014046947 0.0014698748 -0.04291089
000390 d2 33 9e bb 38 2f a1 bd 21 03 0d bd 08 1d ff bd
       -0.004827955 -0.078703344 -0.034426812 -0.12456709
0003a0 fc fb d6 3d f0 c2 9e bc 4e ea 3e 3d 3a 90 ce 3d
       0.10497281 -0.019380063 0.04661017 0.10086103
0003b0 28 4f 03 bd b3 40 13 be 31 7d 06 bd 32 8e 10 be
       -0.03205791 -0.1438015 -0.032834236 -0.14116743
0003c0 19 72 68 3c 37 10 d9 bd 8b da 37 3c 31 64 96 3c
       0.014187359 -0.10598796 0.011221538 0.018358322
0003d0 ef 0b b7 bc 32 a1 64 bd f1 5c c4 3d d5 c3 1c bc
       -0.022344558 -0.05581779 0.0958804 -0.009568174
0003e0 9d ae 1d bd 0a 02 89 bd c9 0c f1 3c fd cd af bd
       -0.038496602 -0.06689842 0.029425042 -0.08584211
0003f0 e5 a1 22 bd b2 24 10 bc 50 98 56 bd 97 f6 1e 3d
       -0.039705176 -0.008797811 -0.05239135 0.038809385
